trained_models/final_model.tflite (tflite, 9264 bytes, 7 tensors)

dense_2/bias f2 [16]
000000 0f a3 00 00 00 00 0f 18 ed 14 f9 a2 8d 98 48 9c
       -0.01379 0.0 0.0 0.001982 0.001203 -0.01362 -0.002222 -0.00418
000010 bf a2 5e 1b ef 14 75 a0 e7 17 59 22 d9 20 03 97
       -0.013176 0.003597 0.0012045 -0.008705 0.001929 0.0124 0.00947 -0.001712

dense_1/bias f2 [32]
000000 3f a0 99 21 68 1a 00 00 d4 9f 68 a2 59 1e 0c 1d
       -0.00829 0.01093 0.003128 0.0 -0.007645 -0.01251 0.0062 0.00493
000010 48 01 be 22 92 a4 00 00 2f 20 a7 1e 87 90 00 00
       1.955e-05 0.01317 -0.01785 0.0 0.00817 0.006496 -0.0005527 0.0
000020 6c a3 88 92 4c 22 3f 0f d6 a2 24 9d 7b a0 51 94
       -0.014496 -0.0007973 0.0123 0.0004423 -0.01335 -0.00502 -0.00875 -0.001054
000030 f0 20 44 a2 cc 99 2c 91 58 9a 61 1e 97 a2 65 20
       0.00964 -0.01224 -0.00283 -0.0006313 -0.003098 0.00623 -0.01287 0.00858

dense/bias f2 [32]
000000 00 00 9b 93 00 00 23 24 3e 1d 00 00 a4 a2 f6 1d
       0.0 -0.0009284 0.0 0.01616 0.00512 0.0 -0.01297 0.00582
000010 1b 9e 59 9a 1a a4 00 00 06 23 20 19 00 00 a0 20
       -0.005962 -0.0031 -0.01602 0.0 0.01372 0.002502 0.0 0.00903
000020 e1 17 00 00 26 1f b6 1d 00 00 27 98 fe 1e a4 9e
       0.001924 0.0 0.00698 0.005577 0.0 -0.002028 0.00683 -0.006485
000030 00 00 e2 90 19 0c 8c 9c 17 a0 00 00 00 00 25 a1
       0.0 -0.000596 0.00025 -0.00444 -0.00799 0.0 0.0 -0.01005

sequential/dense/MatMul f2 [32, 42]
000000 25 a9 94 ae a6 1d 6b 33 61 2d 23 b2 9d b3 96 a5
       -0.0402 -0.1028 0.005516 0.2318 0.08405 -0.1918 -0.2379 -0.02182
000010 b4 02 32 28 87 29 60 b0 11 34 2a ab ea ae 69 34
       4.125e-05 0.03278 0.04318 -0.1367 0.2542 -0.05597 -0.10803 0.2756
000020 25 a2 1d ac 16 b3 37 31 17 b1 27 ac 3b a6 85 34
       -0.012 -0.0643 -0.2214 0.163 -0.159 -0.0649 -0.02434 0.2825
000030 1c b2 4c b3 d5 b1 29 2f 43 b0 d9 b0 28 34 53 a4
       -0.1909 -0.228 -0.1823 0.1119 -0.1332 -0.1515 0.2598 -0.01689
000040 54 34 93 2a e7 b2 96 32 0e a5 c6 b1 6f ad 04 34
       0.2705 0.05136 -0.2157 0.2058 -0.01974 -0.1804 -0.0849 0.251
000050 9e b1 5e 2d 77 b1 76 a8 82 27 36 b0 19 32 03 32
       -0.1755 0.08386 -0.1708 -0.03485 0.02933 -0.1316 0.1906 0.1879
000060 f1 30 08 30 0b b4 e9 b0 ca 31 4b ab 36 27 ef 24
       0.1544 0.126 -0.2527 -0.1534 0.1809 -0.05698 0.02817 0.01927
000070 6d b3 59 b4 55 33 f1 1c 75 b3 77 b4 29 ad 2d 33
       -0.232 -0.2717 0.2291 0.004826 -0.233 -0.279 -0.0806 0.2242
000080 6f af 95 30 39 2f 63 1c c5 af 16 b4 e9 30 5a 32
       -0.11615 0.1432 0.11285 0.004284 -0.1214 -0.2554 0.1534 0.1985
000090 aa 30 c8 b0 ae b3 b2 32 33 b3 3b b4 00 af 8d af
       0.1458 -0.1494 -0.24 0.2092 -0.225 -0.2644 -0.1094 -0.118
0000a0 e6 2f 7f 33 77 b3 bd aa 3b 29 55 34 6f 1e 93 2e
       0.1234 0.2343 -0.2333 -0.05264 0.04086 0.2708 0.006283 0.1027
0000b0 b1 a5 b2 af 28 ab ae b3 21 b2 84 b4 eb ae f9 31
       -0.02223 -0.12024 -0.0559 -0.24 -0.1915 -0.2822 -0.1081 0.1866
0000c0 ed 30 2d 34 26 b1 ef ad 08 33 22 32 a6 ae 31 b4
       0.1539 0.261 -0.1609 -0.0927 0.2197 0.1917 -0.1039 -0.262
0000d0 02 32 03 33 2f b0 d8 b1 4a ab 9a 30 6d a5 b0 2e
       0.1877 0.2191 -0.1307 -0.1826 -0.05695 0.1438 -0.0212 0.1045
0000e0 6a b4 06 af 48 b1 0f ad aa ae 74 30 24 ae ea ab
       -0.276 -0.10974 -0.165 -0.07904 -0.1041 0.1392 -0.09595 -0.06183
0000f0 e0 a8 32 b3 57 34 eb 30 fa ad e7 31 54 b0 2b 2f
       -0.0381 -0.2249 0.2712 0.1537 -0.0934 0.1844 -0.1353 0.112
000100 9a b0 63 2f f8 2f 5e 2e 6c ac 48 a2 77 b2 13 32
       -0.1438 0.1154 0.1245 0.0995 -0.0691 -0.01227 -0.202 0.1898
000110 bd b1 5d ae 14 31 0d b0 c1 28 59 1d d6 34 d5 b1
       -0.1793 -0.0994 0.1587 -0.1266 0.03714 0.005222 0.3022 -0.1823
000120 b8 2e 86 b4 b3 33 b4 b3 2f 9d 75 2f ee b2 52 31
       0.105 -0.2827 0.2406 -0.2407 -0.005062 0.1165 -0.2166 0.1663
000130 c4 b1 45 2a 59 30 bd b2 45 2f 27 34 0f ac 0e 30
       -0.1802 0.04898 0.1359 -0.2106 0.1136 0.2595 -0.0634 0.1267
000140 4e 33 93 10 af b2 d4 27 b9 24 e9 b3 e6 34 4e 2c
       0.2283 0.0005584 -0.2089 0.03058 0.01845 -0.2472 0.3062 0.06726
000150 66 2a 92 af 1a ad d1 32 2d b2 14 b4 5c 30 48 b4
       0.05 -0.1183 -0.0797 0.213 -0.193 -0.255 0.1362 -0.2676
000160 e5 b3 99 2f 50 ad 93 b3 50 2d d0 2e 17 2c 75 ae
       -0.2467 0.1187 -0.083 -0.2367 0.083 0.10645 0.0639 -0.1009
000170 03 b0 47 2e ba 30 e7 33 7a 34 6e 34 c6 32 c8 24
       -0.1254 0.0981 0.1477 0.247 0.2798 0.2769 0.2117 0.01868
000180 f5 31 02 2c ef 9d e3 af ca 30 20 33 73 33 bb 21
       0.1862 0.0626 -0.005795 -0.1232 0.1497 0.2227 0.2328 0.01119
000190 9c b0 96 aa 13 32 c1 b0 49 b4 aa a7 44 aa 88 2e
       -0.144 -0.05145 0.1898 -0.1486 -0.2678 -0.02994 -0.04895 0.10205
0001a0 0e 32 43 b2 8c 33 60 32 fe b1 a1 b1 73 b3 74 2a
       0.1892 -0.1957 0.2358 0.1992 -0.1873 -0.1759 -0.2328 0.0504
0001b0 0c 32 84 2d 29 b0 b1 a0 30 26 b0 b1 48 31 b1 b1
       0.189 0.0862 -0.13 -0.00916 0.02417 -0.1777 0.165 -0.1779
0001c0 81 a9 99 31 3c 24 11 b2 18 2f 23 2d 99 a6 4c ae
       -0.043 0.1749 0.01654 -0.1896 0.11084 0.08026 -0.02577 -0.0984
0001d0 32 23 97 31 88 ae ea 31 d3 ae 5f 33 6d 2e 2b b4
       0.01405 0.1747 -0.10205 0.1848 -0.1066 0.2303 0.1004 -0.2605
0001e0 e5 2e 37 a9 cc 2d c2 33 04 31 46 30 66 b3 50 31
       0.1077 -0.04074 0.0906 0.2424 0.1567 0.1335 -0.2312 0.166
0001f0 7d b1 01 31 2d b2 c5 aa db 2c 69 af 26 33 c2 a1
       -0.1715 0.1564 -0.193 -0.0529 0.07587 -0.1158 0.2234 -0.011246

sequential/dense_1/MatMul f2 [32, 32]
000000 4b b3 3c 29 5e a0 fd 32 c6 31 7f a4 9b a5 c2 25
       -0.2279 0.0409 -0.00853 0.2184 0.1804 -0.01756 -0.0219 0.02249
000010 8c 1c 0c b2 d9 34 8d ab b8 34 02 2e 2f 34 00 b4
       0.00444 -0.189 0.303 -0.059 0.295 0.0939 0.2615 -0.25
000020 1d 32 78 32 7d a8 97 31 1e 33 00 30 cc 30 d9 2e
       0.191 0.2021 -0.03506 0.1747 0.2224 0.125 0.1499 0.107
000030 5a 9f 2c b1 9d b0 77 ae 2b af 73 ad 65 33 a5 b0
       -0.00718 -0.1616 -0.1442 -0.101 -0.112 -0.08514 0.2311 -0.1451
000040 13 34 8d 2f e4 30 4e 30 de b2 4b b1 65 2a 0e 30
       0.2546 0.118 0.1528 0.1345 -0.2146 -0.1654 0.04996 0.1267
000050 12 1f 41 34 42 2c a1 b4 66 33 f1 34 62 ac 5c af
       0.006905 0.2659 0.0665 -0.2893 0.2312 0.3088 -0.0685 -0.115
000060 21 b3 64 27 29 a9 fa a1 cb 97 28 31 0c 35 75 2b
       -0.2228 0.02887 -0.0403 -0.01167 -0.001903 0.1611 0.3154 0.05826
000070 b5 2d c6 34 7c b0 5f 2f dd 2e 45 b4 69 30 c6 b3
       0.0892 0.2983 -0.1401 0.1152 0.10724 -0.2668 0.1378 -0.2429
000080 2b b3 f0 b4 e5 2f 33 b0 fc aa d0 b4 dc b4 0c b2
       -0.224 -0.3086 0.12335 -0.1312 -0.05457 -0.3008 -0.3037 -0.189
000090 33 34 39 b3 6c 2c b2 b3 38 ad f8 b0 1c 2e 66 34
       0.2625 -0.2257 0.0691 -0.2405 -0.08154 -0.1553 0.09546 0.275
0000a0 72 b1 11 b4 ed a8 3a b4 83 b4 d5 af 7a ac b4 33
       -0.1702 -0.2542 -0.03848 -0.2642 -0.282 -0.1224 -0.06995 0.2407
0000b0 bc 29 db b1 c4 34 60 b4 06 b4 5e 19 15 ab c2 b2
       0.0448 -0.183 0.2979 -0.2734 -0.2515 0.00262 -0.05533 -0.2112
0000c0 3b ae 69 27 6d 32 f4 2e 83 b4 8a b4 d2 31 67 b2
       -0.09735 0.02895 0.2008 0.10864 -0.282 -0.2837 0.1819 -0.2001
0000d0 2e 34 b1 b0 f1 b3 6c 30 4f 31 17 34 47 af e4 ac
       0.2612 -0.1466 -0.2482 0.1382 0.1659 0.2556 -0.1137 -0.0764
0000e0 0d 30 d4 b1 bf b4 8e 16 8c 34 56 ad dd 2f d6 b4
       0.1266 -0.1821 -0.2966 0.0016 0.2842 -0.0834 0.12286 -0.3022
0000f0 0d b4 35 34 19 33 e2 1e 26 b4 d1 28 57 30 0e b1
       -0.2532 0.263 0.2218 0.00672 -0.2593 0.03763 0.1356 -0.158
000100 e3 b4 65 b4 1d b2 0c ab 39 34 be b3 9b b2 aa a9
       -0.3054 -0.2747 -0.191 -0.05505 0.264 -0.242 -0.2064 -0.04425
000110 fe b3 13 b1 9d 31 72 33 fe b1 2c b0 25 28 12 2c
       -0.2498 -0.1586 0.1754 0.2327 -0.1873 -0.1304 0.03238 0.0636
000120 29 25 cf b0 fb b0 16 b4 fe af 75 31 74 33 a3 30
       0.02016 -0.1503 -0.1556 -0.2554 -0.1249 0.1705 0.2329 0.1449
000130 25 34 bc b4 7b 34 9b ad 27 32 f1 aa 2c b3 5e 28
       0.259 -0.296 0.28 -0.0876 0.1923 -0.05423 -0.2241 0.03412
000140 69 34 a2 32 da 32 be 2e 01 a3 20 34 72 2f 6e b4
       0.2756 0.2073 0.2141 0.10535 -0.01368 0.2578 0.11633 -0.2769
000150 93 b1 9f 31 19 b3 b5 b1 b5 a6 b1 a4 60 ac bb b4
       -0.1742 0.1757 -0.2218 -0.1783 -0.0262 -0.01833 -0.06836 -0.2957
000160 27 b2 bb 31 b4 0e 78 b2 0c b1 bb b0 de b4 10 2e
       -0.1923 0.1791 0.0004091 -0.2021 -0.1577 -0.1478 -0.3042 0.0947
000170 4f a4 97 26 0e b0 9c b4 9d b1 08 af 9a 33 3b 30
       -0.01683 0.02574 -0.1267 -0.288 -0.1754 -0.10986 0.2375 0.1322
000180 6d 34 70 2f 11 31 b6 32 bd b4 b2 9f 2d ae 99 ad
       0.2766 0.1162 0.1583 0.2097 -0.2961 -0.007515 -0.0965 -0.08746
000190 2c ad 84 ae b3 ad a1 b4 45 ab 01 ad bf b3 e1 34
       -0.0808 -0.1018 -0.08905 -0.2893 -0.0568 -0.0782 -0.2421 0.305
0001a0 ea aa 61 ac 67 33 a2 34 e2 ac c5 b4 b5 30 b2 b2
       -0.05402 -0.0684 0.2313 0.2896 -0.0763 -0.298 0.1471 -0.2092
0001b0 1d b4 54 b4 37 30 43 b1 1a 22 dc aa 8e 30 55 b3
       -0.257 -0.2705 0.1317 -0.1644 0.01192 -0.0536 0.1423 -0.2291
0001c0 c9 b3 ea 32 45 2e 22 ab a9 27 c4 13 27 b2 d9 30
       -0.2433 0.2161 0.09796 -0.05573 0.02992 0.000948 -0.1923 0.1515
0001d0 62 b2 e1 ad 13 a8 75 ad 78 b5 92 b3 11 b2 8f 28
       -0.1995 -0.09186 -0.03183 -0.08527 -0.3418 -0.2366 -0.1896 0.0356
0001e0 33 34 df 30 1e b5 44 34 2e b2 4d b4 63 34 12 a8
       0.2625 0.1522 -0.3198 0.2666 -0.1931 -0.2688 0.2742 -0.0318
0001f0 d3 aa 55 32 83 a7 47 b2 7e 34 1d 33 67 34 71 2f
       -0.0533 0.1979 -0.02934 -0.1962 0.2808 0.2223 0.2751 0.1163

sequential/dense_2/MatMul f2 [16, 32]
000000 1c b2 ce b4 8f 29 0f b1 5b 2f 38 34 6c a3 17 30
       -0.1909 -0.3003 0.04343 -0.1581 0.1149 0.2637 -0.014496 0.1278
000010 5e aa 54 32 f9 34 45 b5 af b3 b4 aa 22 ae 70 b5
       -0.04974 0.1978 0.3108 -0.3293 -0.2401 -0.05237 -0.0958 -0.3398
000020 4f ad 8a b4 25 30 1f b3 63 b4 a6 b4 39 b4 2f 30
       -0.08295 -0.2837 0.1295 -0.2225 -0.2742 -0.2905 -0.264 0.1307
000030 61 23 3c b0 a3 b5 45 31 bf 21 46 2e 3f 35 3c 34
       0.01441 -0.1323 -0.3523 0.1647 0.01122 0.098 0.328 0.2646
000040 6d b2 bf b2 dc ae 01 b0 8b 28 7c b0 44 b5 7a 35
       -0.2008 -0.2108 -0.1072 -0.1251 0.0355 -0.1401 -0.329 0.3423
000050 6d af c8 2e 29 28 be 32 dd b4 e9 b3 42 2a bc 2c
       -0.116 0.10596 0.0325 0.2107 -0.304 -0.2472 0.0489 0.074
000060 17 35 4e 2a 81 35 ec a6 42 b2 8c 2e ad b0 ac 2f
       0.318 0.04926 0.344 -0.02704 -0.1956 0.1023 -0.1461 0.1199
000070 a7 ac 77 ad 63 b5 c5 34 0a b5 f4 ac c5 b4 98 32
       -0.0727 -0.0854 -0.3367 0.298 -0.315 -0.0774 -0.298 0.206
000080 24 b2 28 b5 92 aa bb b4 0c b2 2a b0 94 1e fc 26
       -0.1919 -0.3223 -0.05133 -0.2957 -0.189 -0.1301 0.006424 0.02728
000090 28 30 d8 30 c1 33 d6 30 91 2d 73 32 68 b4 ff b0
       0.1299 0.1514 0.2423 0.1511 0.087 0.2015 -0.2754 -0.1561
0000a0 e8 b2 7e 33 7a b5 f0 b3 1c 32 08 b5 db 2f 2a 35
       -0.2158 0.2341 -0.3423 -0.248 0.1909 -0.3145 0.12274 0.3228
0000b0 ab 34 32 b4 94 30 73 b5 f7 2e 95 ab d3 b4 de b2
       0.2917 -0.2622 0.1431 -0.3406 0.1088 -0.05923 -0.3015 -0.2146
0000c0 72 35 ca 30 78 ac 6a 33 d3 2a d0 aa 22 b2 e8 9f
       0.3403 0.1497 -0.0698 0.2317 0.0533 -0.05322 -0.1917 -0.00772
0000d0 2a b4 1b ae 02 2d b6 34 b0 35 2b b4 43 af ca b3
       -0.2603 -0.0954 0.07825 0.2944 0.3555 -0.2605 -0.11346 -0.2434
0000e0 bf 35 88 ac 5e 9c 7b 34 2b 32 7d 32 7a b1 7a 30
       0.3591 -0.0708 -0.004265 0.28 0.1927 0.2028 -0.1711 0.1399
0000f0 57 29 91 b4 8e a8 58 1d ec ad 73 2e 9f b5 a9 35
       0.04172 -0.2854 -0.03558 0.00522 -0.0925 0.10077 -0.3513 0.3538
000100 ce 30 ac 2a d4 33 b4 34 8c 34 1d 33 45 2d 61 31
       0.1501 0.05212 0.2446 0.294 0.2842 0.2223 0.08234 0.1681
000110 db b3 54 2f ec ae db 30 ea ad ef 2c 26 b4 d2 2d
       -0.2455 0.1145 -0.10815 0.1517 -0.0924 0.0771 -0.2593 0.09094
000120 67 b2 07 ad 0e b3 a6 ad f1 b4 48 31 a3 35 b0 b4
       -0.2001 -0.07855 -0.2205 -0.08826 -0.3088 0.165 0.3523 -0.293
000130 04 33 21 2b 21 31 c3 b1 2e ae 8d b4 18 af e8 33
       0.2192 0.0557 0.1603 -0.18 -0.09656 -0.2844 -0.11084 0.2471
000140 b0 34 37 2e 1a 35 0f b0 28 b5 34 32 14 b2 34 a8
       0.293 0.0971 0.3188 -0.1268 -0.3223 0.1938 -0.19 -0.03284
000150 75 32 3f 35 0c 30 3f 24 97 31 c6 ab 72 b3 b9 b0
       0.2018 0.328 0.1265 0.01659 0.1747 -0.06073 -0.2327 -0.1476
000160 37 29 b0 b0 ed ab a1 30 cd b3 39 35 24 22 67 ab
       0.04074 -0.1465 -0.06192 0.1447 -0.2438 0.3264 0.01199 -0.05783
000170 4d 35 51 2f 0c af 5a a6 53 af a4 2a e4 aa 22 b5
       0.3313 0.1143 -0.1101 -0.02481 -0.11444 0.05188 -0.05383 -0.3208
000180 5a b0 3a 2f 2b b2 0e b4 ea ac da 2c 6b 32 6a b1
       -0.136 0.1129 -0.1927 -0.2534 -0.0768 0.0758 0.2006 -0.1692
000190 bf b1 52 34 8d 35 44 ac 3a 35 b0 34 89 2a ee 28
       -0.1796 0.27 0.347 -0.06665 0.3267 0.293 0.05106 0.0385
0001a0 d7 29 73 35 1d ab 60 b4 69 b5 5b 32 83 a8 49 b4
       0.04562 0.3406 -0.05557 -0.2734 -0.3381 0.1986 -0.03525 -0.2678
0001b0 80 aa ff 94 d1 32 51 35 ad 2e 23 a6 1c 24 f0 ac
       -0.05078 -0.00122 0.213 0.3323 0.1043 -0.02397 0.01605 -0.07715
0001c0 2e 30 72 b4 d7 b4 88 33 61 34 3f ac 89 b5 28 ad
       0.1306 -0.2778 -0.3025 0.2354 0.2737 -0.06635 -0.346 -0.08057
0001d0 f8 34 08 24 86 b1 60 b3 75 b5 34 34 ef 16 49 2c
       0.3105 0.01575 -0.1726 -0.2305 -0.341 0.2627 0.001693 0.06696
0001e0 2f a4 3e 32 17 34 1f ad cf b1 1b 32 15 30 0a 2d
       -0.01634 0.1951 0.2556 -0.08 -0.1815 0.1908 0.1276 0.07874
0001f0 3b b0 7d 35 61 b0 16 24 e3 30 ec a5 54 30 63 34
       -0.1322 0.343 -0.1368 0.01596 0.1527 -0.02313 0.1353 0.2742

sequential/dense_3/MatMul f2 [3, 16]
000000 3f 30 e6 24 9d b7 11 34 05 34 2a 36 f8 b2 74 b7
       0.1327 0.01913 -0.4758 0.2542 0.2512 0.3853 -0.2178 -0.4658
000010 d8 b6 81 b0 9c 37 ef 2f 7d 29 20 35 6b b6 79 b2
       -0.4277 -0.1407 0.4756 0.12396 0.04288 0.3203 -0.4011 -0.2023
000020 4e 2c d1 b6 29 2f 84 27 b2 b4 88 36 7a 34 3e af
       0.06726 -0.426 0.1119 0.02936 -0.2935 0.4082 0.2798 -0.11316
000030 e2 b7 12 b5 05 b4 e5 31 13 b7 4b b8 a6 b7 6b a5
       -0.4927 -0.317 -0.2512 0.1842 -0.4421 -0.5366 -0.478 -0.02116
000040 73 b7 53 30 f0 b6 dc 33 e6 b4 62 b0 10 a6 e9 aa
       -0.4656 0.1351 -0.4336 0.2456 -0.3062 -0.137 -0.02368 -0.054
000050 5a b2 93 af ec 37 88 a8 6f b1 6f 37 a5 37 05 32
       -0.1985 -0.11835 0.495 -0.0354 -0.1698 0.4646 0.4778 0.1881
