trained_models/final_model_quant.tflite (tflite, 6712 bytes, 4 tensors)

sequential/quant_dense/MatMul;sequential/quant_dense/LastValueQuant/FakeQuantWithMinMaxVars i1 [32, 42] scale=0.002455201 zero_point=0
-0.23078889 0.11539444 -0.18659528 0.2725273 0.12030485 0.04910402 0.041738417 -0.05155922
-0.17677447 -0.041738417 0.09820804 -0.19396088 0.056469623 -0.2749825 -0.061380025 -0.11539444
-0.112939246 -0.18659528 -0.10311844 -0.20132649 0.04664882 -0.2185129 -0.044193618 -0.19887128
-0.14240167 -0.088387236 -0.08102164 -0.12767045 -0.08593203 0.2676169 -0.23078889 0.21360248
0.058924824 0.11539444 0.009820804 -0.04664882 0.112939246 -0.18414007 -0.19887128 -0.100663245
-0.05155922 -0.16940887 -0.22342329 -0.012276005 0.21605769 -0.009820804 0.054014422 -0.07611123
0.18168488 -0.019641608 -0.004910402 0.07365603 -0.2504305 -0.09329764 0.027007211 -0.022096809
0.07365603 0.041738417 0.2528857 -0.19150567 0.15222245 -0.13749126 0.2381545 0.18414007
0.10311844 -0.10557364 0.20869209 0.12767045 -0.017186407 -0.19641608 0.17677447 -0.063835226
-0.13258085 -0.27743772 0.112939246 0.19641608 0.21114728 -0.14240167 0.07120083 -0.17431927
0.13994646 -0.12767045 0.002455201 0.04910402 -0.2553409 0.14731206 -0.095752835 -0.019641608
-0.07120083 0.029462412 -0.11539444 0.019641608 -0.14485686 -0.19641608 -0.04664882 -0.13258085
-0.12030485 0.007365603 0.17186406 -0.12767045 -0.17677447 0.21360248 0.21605769 0.2504305
0.04910402 -0.19150567 0.21360248 -0.2185129 -0.2676169 0.15222245 0.2381545 -0.031917613
0.15713286 -0.11784965 -0.2725273 0.100663245 -0.031917613 -0.2651617 -0.054014422 -0.027007211
-0.2651617 0.13012566 0.02455201 0.12767045 0.029462412 0.007365603 0.061380025 0.09084244
0.20869209 -0.088387236 -0.2479753 0.036828015 -0.2381545 -0.04664882 -0.06874563 0.02455201
-0.12767045 -0.27989292 -0.11784965 -0.20869209 -0.17677447 -0.061380025 -0.12767045 0.11784965
0.034372814 0.12521525 -0.19396088 0.20378168 -0.14240167 0.15467766 -0.2553409 -0.28480333
0.27989292 -0.2700721 -0.058924824 -0.08593203 0.014731206 -0.06874563 0.036828015 0.07120083
-0.28480333 0.2504305 0.2602513 0.108028844 -0.27989292 0.02455201 0.13749126 -0.017186407
0.13258085 -0.17922968 0.16695367 -0.2651617 0.13503605 0.056469623 -0.031917613 -0.061380025
-0.2897137 -0.014731206 0.08593203 0.20132649 0.029462412 -0.2528857 0.014731206 0.19150567
0.112939246 0.06629042 0.20378168 -0.15222245 -0.16449846 -0.15467766 0.07120083 0.2356993
-0.2700721 0.031917613 0.002455201 -0.061380025 -0.06874563 -0.22342329 -0.11048405 0.007365603
-0.2356993 -0.2602513 -0.004910402 -0.13503605 0.095752835 0.2577961 0.044193618 -0.17186406
0.19887128 -0.23078889 -0.18905048 -0.12767045 -0.21360248 0.11784965 0.07856643 -0.15713286
0.039283216 -0.017186407 0.07856643 -0.07120083 0.12030485 -0.17186406 -0.08593203 0.17186406
0.07611123 0.044193618 0.058924824 0.014731206 0.14240167 -0.23324409 0.11539444 0.14976726
0.16940887 0.2504305 0.002455201 0.22587849 -0.13258085 -0.2479753 0.063835226 0.2651617
0.16940887 0.12276005 0.002455201 0.054014422 -0.108028844 0.23324409 0.2577961 -0.034372814
-0.10557364 0.11048405 0.16940887 -0.12521525 -0.27989292 -0.2577961 0.08102164 -0.16695367
00000000: a22f b46f 3114 11eb b8ef 28b1 1790 e7d1
00000010: d2b4 d6ae 13a7 eeaf c6dc dfcc dd6d a257
00000020: 182f 04ed 2eb5 afd7 ebbb a5fb 58fc 16e1
00000030: 4af8 fe1e 9ada 0bf7 1e11 67b2 3ec8 614b
00000040: 2ad5 5534 f9b0 48e6 ca8f 2e50 56c6 1db9
00000050: 39cc 0114 983c d9f8 e30c d108 c5b0 edca
00000060: cf03 46cc b857 5866 14b2 57a7 933e 61f3
00000070: 40d0 9129 f394 eaf5 9435 0a34 0c03 1925
00000080: 55dc 9b0f 9fed e40a cc8e d0ab b8e7 cc30
00000090: 0e33 b153 c63f 988c 7292 e8dd 06e4 0f1d
000000a0: 8c66 6a2c 8e0a 38f9 36b7 4494 3717 f3e7
000000b0: 8afa 2352 0c99 064e 2e1b 53c2 bdc1 1d60
000000c0: 920d 01e7 e4a5 d303 a096 fec9 2769 12ba
000000d0: 51a2 b3cc a930 20c0 10f9 20e3 31ba dd46
000000e0: 1f12 1806 3aa1 2f3d 4566 015c ca9b 1a6c
000000f0: 4532 0116 d45f 69f2 d52d 45cd 8e97 21bc

sequential/quant_dense_1/MatMul;sequential/quant_dense_1/LastValueQuant/FakeQuantWithMinMaxVars i1 [32, 32] scale=0.0025868702 zero_point=0
-0.10347481 -0.10347481 -0.049150534 -0.16038595 0.29231635 -0.13710412 0.26386076 0.2612739
0.18884152 0.30007693 -0.28196886 0.062084883 0.23799206 0.08795359 0.28455573 0.2250577
0.2690345 0.028455572 0.28196886 -0.11123542 0.12934351 0.10347481 0.23023145 -0.067258626
0.27679512 0.13451725 -0.25351328 0.049150534 0.033629313 -0.064671755 0.036216184 0.17590718
0.07243237 -0.015521221 -0.059498016 0.28196886 0.09054046 -0.07501923 0.11640916 0.21729709
0.2509264 -0.20436275 -0.2612739 -0.12934351 0.21471024 0.17332031 -0.15779908 -0.25610015
-0.108648546 -0.031042442 0.23023145 0.31559816 0.07501923 0.10088794 0.24575268 0.17332031
0.23281832 0.2612739 0.14227787 -0.041389924 0.025868703 -0.11640916 0.199189 0.2095365
0.28972948 0.051737405 0.28972948 -0.19660214 0.10088794 0.043976795 0.051737405 0.18108092
-0.2871426 -0.18366778 -0.09830107 0.13451725 0.20694962 0.0698455 -0.1914284 0.08536672
-0.24833953 0.012934351 -0.18884152 -0.26386076 0.14227787 -0.2250577 -0.14745161 -0.12675664
-0.07243237 0.21729709 -0.08277985 -0.24057893 0.108648546 -0.031042442 -0.17332031 -0.038803052
-0.27679512 -0.07243237 -0.15003847 -0.11382229 0.14486474 -0.18108092 0.015521221 -0.051737405
0.23540519 0.0698455 -0.19660214 0.13193038 0.062084883 -0.09054046 -0.22247083 -0.25351328
0.17849405 0.0025868702 0.21988396 -0.0698455 0.21729709 0.023281831 0.1655597 0.13193038
0.18108092 -0.12934351 -0.22247083 0.036216184 -0.12416977 -0.32594565 0.062084883 -0.046563663
0.21212336 -0.09830107 0.08536672 0.22764458 -0.279382 -0.10347481 0.031042442 -0.17590718
-0.28455573 0.031042442 -0.0077606104 0.15262534 -0.21471024 0.108648546 0.20436275 -0.2974901
0.010347481 -0.20694962 -0.23023145 -0.14486474 0.19660214 0.08795359 0.23540519 0.018108092
0.11382229 0.0698455 -0.11640916 0.11899603 0.139691 0.018108092 0.18625465 0.031042442
0.1914284 -0.10347481 -0.049150534 0.07501923 -0.3026638 -0.2250577 0.0051737404 -0.28455573
-0.1655597 -0.14745161 -0.09830107 0.08795359 -0.13451725 -0.2974901 0.28455573 -0.0025868702
-0.13451725 -0.043976795 -0.139691 -0.28455573 -0.27420825 -0.28972948 0.11640916 0.2974901
-0.2612739 -0.12416977 0.1914284 -0.0698455 0.25610015 -0.11899603 0.1215829 0.0077606104
-0.30007693 -0.2431658 0.054324273 -0.15003847 -0.13193038 -0.15521221 -0.18884152 0.13451725
-0.0051737404 0.19401526 0.3026638 -0.3026638 0.199189 -0.031042442 0.09054046 0.064671755
-0.23023145 0.07243237 0.010347481 -0.108648546 0.28455573 0.0698455 0.0 -0.12416977
0.24057893 0.28972948 -0.24833953 -0.199189 -0.038803052 0.2250577 -0.31042442 0.1914284
-0.056911144 0.12416977 -0.018108092 -0.2612739 -0.07501923 0.28455573 -0.199189 -0.14227787
-0.12934351 -0.12416977 -0.046563663 0.23023145 0.13710412 -0.11123542 0.10606168 0.279382
0.15003847 0.07501923 -0.18366778 -0.32335877 -0.28196886 -0.14486474 -0.015521221 0.19660214
-0.1914284 -0.062084883 0.0957142 -0.0051737404 0.19401526 -0.13451725 0.2095365 -0.18366778
00000000: d8d8 edc2 71cb 6665 4974 9318 5c22 6e57
00000010: 680b 6dd5 3228 59e6 6b34 9e13 0de7 0e44
00000020: 1cfa e96d 23e3 2d54 61b1 9bce 5343 c39d
00000030: d6f4 597a 1d27 5f43 5a65 37f0 0ad3 4d51
00000040: 7014 70b4 2711 1446 91b9 da34 501b b621
00000050: a005 b79a 37a9 c7cf e454 e0a3 2af4 bdf1
00000060: 95e4 c6d4 38ba 06ec 5b1b b433 18dd aa9e
00000070: 4501 55e5 5409 4033 46ce aa0e d082 18ee
00000080: 52da 2158 94d8 0cbc 920c fd3b ad2a 4f8d
00000090: 04b0 a7c8 4c22 5b07 2c1b d32e 3607 480c
000000a0: 4ad8 ed1d 8ba9 0292 c0c7 da22 cc8d 6eff
000000b0: ccef ca92 9690 2d73 9bd0 4ae5 63d2 2f03
000000c0: 8ca2 15c6 cdc4 b734 fe4b 758b 4df4 2319
000000d0: a71c 04d6 6e1b 00d0 5d70 a0b3 f157 884a
000000e0: ea30 f99b e36e b3c9 ced0 ee59 35d5 296c
000000f0: 3a1d b983 93c8 fa4c b6e8 25fe 4bcc 51b9

sequential/quant_dense_2/MatMul;sequential/quant_dense_2/LastValueQuant/FakeQuantWithMinMaxVars i1 [16, 32] scale=0.0030047505 zero_point=0
-0.24939428 -0.09014251 0.11418052 0.030047504 0.06910926 -0.19230403 0.21634203 -0.25840855
-0.12019002 -0.30047506 -0.054085508 0.27643704 0.117185265 -0.07812351 0.16526127 -0.2854513
-0.105166264 0.054085508 -0.26141328 -0.21634203 0.2974703 0.20732778 -0.3034798 0.045071255
-0.096152015 0.009014252 -0.015023752 -0.024038004 0.06009501 -0.29446554 -0.054085508 0.08112826
-0.054085508 -0.08112826 -0.17427553 -0.34254155 -0.06610451 -0.3034798 0.17427553 -0.29446554
0.14122327 -0.12920427 0.09314726 -0.31850356 0.31850356 0.3275178 0.15023753 -0.3215083
-0.27643704 -0.2433848 0.039061755 -0.117185265 -0.11418052 0.012019002 0.05709026 -0.18929929
0.033052254 0.075118765 0.3154988 -0.27042755 -0.20432304 0.015023752 -0.030047504 -0.12319477
0.2674228 -0.009014252 -0.15624702 0.06309976 -0.34855106 0.18629453 0.105166264 -0.3635748
0.26441804 0.033052254 -0.21033253 0.18328978 0.19230403 0.15925178 0.108171016 -0.18629453
-0.108171016 0.2433848 0.23437053 -0.29446554 -0.23737529 0.26441804 0.030047504 0.29446554
0.19230403 -0.27042755 -0.12019002 -0.018028503 0.21333729 0.05108076 -0.027042754 -0.17127077
0.054085508 -0.12319477 -0.07812351 0.11117577 0.21333729 0.14723277 0.26441804 0.30047506
-0.14122327 -0.2854513 0.13220902 0.12920427 -0.28244653 0.22836104 -0.13521378 0.096152015
0.27343228 0.096152015 -0.027042754 0.05108076 -0.24939428 0.28244653 -0.048076008 -0.28845605
0.21634203 -0.12019002 0.18328978 -0.09915677 0.14122327 0.11418052 0.2974703 0.26141328
-0.14723277 0.26441804 0.012019002 0.036057007 0.14422803 -0.17728028 -0.18629453 -0.030047504
-0.16225652 -0.3094893 -0.015023752 -0.10216152 -0.23437053 0.27042755 -0.11418052 -0.30648455
-0.11418052 -0.054085508 0.29446554 -0.21634203 -0.042066507 0.018028503 0.11418052 -0.3575653
-0.096152015 -0.06610451 -0.3275178 0.23136579 -0.32451305 -0.23136579 -0.0030047505 -0.34855106
-0.09915677 -0.12019002 -0.36657956 0.3154988 0.23437053 -0.13821852 -0.22535628 0.05108076
-0.3034798 0.05108076 -0.06309976 0.06910926 0.25239903 -0.19831353 0.3455463 -0.021033254
0.16526127 -0.26441804 -0.22235154 0.021033254 0.24939428 -0.024038004 0.015023752 -0.11117577
-0.18929929 0.15925178 -0.07812351 -0.015023752 -0.16526127 -0.18028502 0.18328978 0.22535628
-0.039061755 -0.23737529 -0.075118765 -0.12319477 0.22535628 0.21634203 -0.021033254 -0.3154988
0.09014251 0.3275178 -0.108171016 -0.23136579 0.35456055 -0.2854513 -0.27042755 0.084133014
-0.12619951 0.19530877 0.28845605 -0.30047506 0.23437053 0.19831353 -0.018028503 0.23437053
0.2554038 0.07211401 -0.3635748 0.0 -0.25840855 -0.030047504 -0.28244653 -0.21634203
0.015023752 -0.009014252 0.30047506 -0.14122327 -0.19530877 0.20131828 0.048076008 -0.18629453
-0.27643704 0.3575653 0.039061755 0.14122327 0.36057004 0.13521378 -0.2674228 0.06610451
0.021033254 -0.16225652 -0.09314726 0.23136579 0.33052254 -0.23737529 -0.13220902 0.28244653
0.3635748 0.25840855 0.15925178 -0.21634203 -0.3816033 -0.039061755 0.21634203 -0.15023753
00000000: ade2 260a 17c0 48aa d89c ee5c 27e6 37a1
00000010: dd12 a9b8 6345 9b0f e003 fbf8 149e ee1b
00000020: eee5 c68e ea9b 3a9e 2fd5 1f96 6a6d 3295
00000030: a4af 0dd9 da04 13c1 0b19 69a6 bc05 f6d7
00000040: 59fd cc15 8c3e 2387 580b ba3d 4035 24c2
00000050: dc51 4e9e b158 0a62 40a6 d8fa 4711 f7c7
00000060: 12d7 e625 4731 5864 d1a1 2c2b a24c d320
00000070: 5b20 f711 ad5e f0a0 48d8 3ddf 2f26 6357
00000080: cf58 040c 30c5 c2f6 ca99 fbde b25a da9a
00000090: daee 62b8 f206 2689 e0ea 934d 94b3 ff8c
000000a0: dfd8 8669 4ed2 b511 9b11 eb17 54be 73f9
000000b0: 37a8 b607 53f8 05db c135 e6fb c9c4 3d4b
000000c0: f3b1 e7d7 4b48 f997 1e6d dcb3 76a1 a61c
000000d0: d641 609c 4e42 fa4e 5518 8700 aaf6 a2b8
000000e0: 05fd 64d1 bf43 10c2 a477 0d2f 782d a716
000000f0: 07ca e14d 6eb1 d45e 7956 35b8 81f3 48ce

sequential/quant_dense_3/MatMul;sequential/quant_dense_3/LastValueQuant/FakeQuantWithMinMaxVars i1 [3, 16] scale=0.0043661823 zero_point=0
-0.3667593 0.034929458 0.52830803 -0.10042219 -0.27943566 0.5414066 -0.0043661823 -0.10042219
0.20957676 0.08732364 -0.42351967 0.13535164 -0.3230975 0.08295746 0.3711255 -0.08295746
0.37549168 0.2707033 0.3711255 -0.48901242 0.013098547 0.09605601 0.3187313 -0.35802695
0.48901242 0.55450517 0.034929458 -0.31436512 0.16591492 -0.55450517 -0.49774477 -0.24887238
0.19211201 0.5370404 0.28380185 0.47591385 -0.13535164 0.4715477 -0.09605601 -0.34929457
0.48028004 0.1964782 0.048028003 0.27943566 -0.51084334 -0.4715477 0.53267425 -0.4933786
00000000: ac08 79e9 c07c ffe9 3014 9f1f b613 55ed
00000010: 563e 5590 0316 49ae 707f 08b8 2681 8ec7
00000020: 2c7b 416d e16c eab0 6e2d 0b40 8b94 7a8f
